…
I0827 05:34:24.902832  1173 net.cpp:323] The NetState phase (0) differed from the phase (1) specified by a rule in layer accuracy_at_5
I0827 05:34:24.903141  1173 net.cpp:49] Initializing net from parameters: 
name: "VGG16"
state {
  phase: TRAIN
}
layer {
  name: "data"
  type: "ImageData"
  top: "data"
  top: "label"
  include {
    phase: TRAIN
  }
  transform_param {
    mirror: true
    crop_size: 224
    mean_value: 104.006
    mean_value: 116.668
    mean_value: 122.678
  }
  image_data_param {
    source: "/home1/qcz/qcz_pro/building_train/code/model/vgg-16/train_bow.txt"
    batch_size: 40
    shuffle: true
    new_height: 256
    new_width: 256
  }
}
layer {
  name: "conv1_1"
  type: "Convolution"
  bottom: "data"
  top: "conv1_1"
  param {
    lr_mult: 1
    decay_mult: 1
  }
  param {
    lr_mult: 2
    decay_mult: 0
  }
  convolution_param {
    num_output: 64
    pad: 1
    kernel_size: 3
    weight_filler {
      type: "gaussian"
      std: 0.01
    }
    bias_filler {
      type: "constant"
      value: 0
    }
  }
}
layer {
  name: "relu1_1"
  type: "ReLU"
  bottom: "conv1_1"
  top: "conv1_1"
}
layer {
  name: "conv1_2"
  type: "Convolution"
  bottom: "conv1_1"
  top: "conv1_2"
  param {
    lr_mult: 1
    decay_mult: 1
  }
  param {
    lr_mult: 2
    decay_mult: 0
  }
  convolution_param {
    num_output: 64
    pad: 1
    kernel_size: 3
    weight_filler {
      type: "gaussian"
      std: 0.01
    }
    bias_filler {
      type: "constant"
      value: 0
    }
  }
}
layer {
  name: "relu1_2"
  type: "ReLU"
  bottom: "conv1_2"
  top: "conv1_2"
}
layer {
  name: "pool1"
  type: "Pooling"
  bottom: "conv1_2"
  top: "pool1"
  pooling_param {
    pool: MAX
    kernel_size: 2
    stride: 2
  }
}
layer {
  name: "conv2_1"
  type: "Convolution"
  bottom: "pool1"
  top: "conv2_1"
  param {
    lr_mult: 1
    decay_mult: 1
  }
  param {
    lr_mult: 2
    decay_mult: 0
  }
  convolution_param {
    num_output: 128
    pad: 1
    kernel_size: 3
    weight_filler {
      type: "gaussian"
      std: 0.01
    }
    bias_filler {
      type: "constant"
      value: 0
    }
  }
}
layer {
  name: "relu2_1"
  type: "ReLU"
  bottom: "conv2_1"
  top: "conv2_1"
}
layer {
  name: "conv2_2"
  type: "Convolution"
  bottom: "conv2_1"
  top: "conv2_2"
  param {
    lr_mult: 1
    decay_mult: 1
  }
  param {
    lr_mult: 2
    decay_mult: 0
  }
  convolution_param {
    num_output: 128
    pad: 1
    kernel_size: 3
    weight_filler {
      type: "gaussian"
      std: 0.01
    }
    bias_filler {
      type: "constant"
      value: 0
    }
  }
}
layer {
  name: "relu2_2"
  type: "ReLU"
  bottom: "conv2_2"
  top: "conv2_2"
}
layer {
  name: "pool2"
  type: "Pooling"
  bottom: "conv2_2"
  top: "pool2"
  pooling_param {
    pool: MAX
    kernel_size: 2
    stride: 2
  }
}
layer {
  name: "conv3_1"
  type: "Convolution"
  bottom: "pool2"
  top: "conv3_1"
  param {
    lr_mult: 1
    decay_mult: 1
  }
  param {
    lr_mult: 2
    decay_mult: 0
  }
  convolution_param {
    num_output: 256
    pad: 1
    kernel_size: 3
    weight_filler {
      type: "gaussian"
      std: 0.01
    }
    bias_filler {
      type: "constant"
      value: 0
    }
  }
}
layer {
  name: "relu3_1"
  type: "ReLU"
  bottom: "conv3_1"
  top: "conv3_1"
}
layer {
  name: "conv3_2"
  type: "Convolution"
  bottom: "conv3_1"
  top: "conv3_2"
  param {
    lr_mult: 1
    decay_mult: 1
  }
  param {
    lr_mult: 2
    decay_mult: 0
  }
  convolution_param {
    num_output: 256
    pad: 1
    kernel_size: 3
    weight_filler {
      type: "gaussian"
      std: 0.01
    }
    bias_filler {
      type: "constant"
      value: 0
    }
  }
}
layer {
  name: "relu3_2"
  type: "ReLU"
  bottom: "conv3_2"
  top: "conv3_2"
}
layer {
  name: "conv3_3"
  type: "Convolution"
  bottom: "conv3_2"
  top: "conv3_3"
  param {
    lr_mult: 1
    decay_mult: 1
  }
  param {
    lr_mult: 2
    decay_mult: 0
  }
  convolution_param {
    num_output: 256
    pad: 1
    kernel_size: 3
    weight_filler {
      type: "gaussian"
      std: 0.01
    }
    bias_filler {
      type: "constant"
      value: 0
    }
  }
}
layer {
  name: "relu3_3"
  type: "ReLU"
  bottom: "conv3_3"
  top: "conv3_3"
}
layer {
  name: "pool3"
  type: "Pooling"
  bottom: "conv3_3"
  top: "pool3"
  pooling_param {
    pool: MAX
    kernel_size: 2
    stride: 2
  }
}
layer {
  name: "conv4_1"
  type: "Convolution"
  bottom: "pool3"
  top: "conv4_1"
  param {
    lr_mult: 1
    decay_mult: 1
  }
  param {
    lr_mult: 2
    decay_mult: 0
  }
  convolution_param {
    num_output: 512
    pad: 1
    kernel_size: 3
    weight_filler {
      type: "gaussian"
      std: 0.01
    }
    bias_filler {
      type: "constant"
      value: 0
    }
  }
}
layer {
  name: "relu4_1"
  type: "ReLU"
  bottom: "conv4_1"
  top: "conv4_1"
}
layer {
  name: "conv4_2"
  type: "Convolution"
  bottom: "conv4_1"
  top: "conv4_2"
  param {
    lr_mult: 1
    decay_mult: 1
  }
  param {
    lr_mult: 2
    decay_mult: 0
  }
  convolution_param {
    num_output: 512
    pad: 1
    kernel_size: 3
    weight_filler {
      type: "gaussian"
      std: 0.01
    }
    bias_filler {
      type: "constant"
      value: 0
    }
  }
}
layer {
  name: "relu4_2"
  type: "ReLU"
  bottom: "conv4_2"
  top: "conv4_2"
}
layer {
  name: "conv4_3"
  type: "Convolution"
  bottom: "conv4_2"
  top: "conv4_3"
  param {
    lr_mult: 1
    decay_mult: 1
  }
  param {
    lr_mult: 2
    decay_mult: 0
  }
  convolution_param {
    num_output: 512
    pad: 1
    kernel_size: 3
    weight_filler {
      type: "gaussian"
      std: 0.01
    }
    bias_filler {
      type: "constant"
      value: 0
    }
  }
}
layer {
  name: "relu4_3"
  type: "ReLU"
  bottom: "conv4_3"
  top: "conv4_3"
}
layer {
  name: "pool4"
  type: "Pooling"
  bottom: "conv4_3"
  top: "pool4"
  pooling_param {
    pool: MAX
    kernel_size: 2
    stride: 2
  }
}
layer {
  name: "conv5_1"
  type: "Convolution"
  bottom: "pool4"
  top: "conv5_1"
  param {
    lr_mult: 1
    decay_mult: 1
  }
  param {
    lr_mult: 2
    decay_mult: 0
  }
  convolution_param {
    num_output: 512
    pad: 1
    kernel_size: 3
    weight_filler {
      type: "gaussian"
      std: 0.01
    }
    bias_filler {
      type: "constant"
      value: 0
    }
  }
}
layer {
  name: "relu5_1"
  type: "ReLU"
  bottom: "conv5_1"
  top: "conv5_1"
}
layer {
  name: "conv5_2"
  type: "Convolution"
  bottom: "conv5_1"
  top: "conv5_2"
  param {
    lr_mult: 1
    decay_mult: 1
  }
  param {
    lr_mult: 2
    decay_mult: 0
  }
  convolution_param {
    num_output: 512
    pad: 1
    kernel_size: 3
    weight_filler {
      type: "gaussian"
      std: 0.01
    }
    bias_filler {
      type: "constant"
      value: 0
    }
  }
}
layer {
  name: "relu5_2"
  type: "ReLU"
  bottom: "conv5_2"
  top: "conv5_2"
}
layer {
  name: "conv5_3"
  type: "Convolution"
  bottom: "conv5_2"
  top: "conv5_3"
  param {
    lr_mult: 1
    decay_mult: 1
  }
  param {
    lr_mult: 2
    decay_mult: 0
  }
  convolution_param {
    num_output: 512
    pad: 1
    kernel_size: 3
    weight_filler {
      type: "gaussian"
      std: 0.01
    }
    bias_filler {
      type: "constant"
      value: 0
    }
  }
}
layer {
  name: "relu5_3"
  type: "ReLU"
  bottom: "conv5_3"
  top: "conv5_3"
}
layer {
  name: "pool5"
  type: "Pooling"
  bottom: "conv5_3"
  top: "pool5"
  pooling_param {
    pool: MAX
    kernel_size: 2
    stride: 2
  }
}
layer {
  name: "fc6"
  type: "InnerProduct"
  bottom: "pool5"
  top: "fc6"
  param {
    lr_mult: 1
    decay_mult: 1
  }
  param {
    lr_mult: 2
    decay_mult: 0
  }
  inner_product_param {
    num_output: 4096
    weight_filler {
      type: "gaussian"
      std: 0.005
    }
    bias_filler {
      type: "constant"
      value: 0.1
    }
  }
}
layer {
  name: "relu6"
  type: "ReLU"
  bottom: "fc6"
  top: "fc6"
}
layer {
  name: "drop6"
  type: "Dropout"
  bottom: "fc6"
  top: "fc6"
  dropout_param {
    dropout_ratio: 0.5
  }
}
layer {
  name: "fc7"
  type: "InnerProduct"
  bottom: "fc6"
  top: "fc7"
  param {
    lr_mult: 1
    decay_mult: 1
  }
  param {
    lr_mult: 2
    decay_mult: 0
  }
  inner_product_param {
    num_output: 4096
    weight_filler {
      type: "gaussian"
      std: 0.005
    }
    bias_filler {
      type: "constant"
      value: 0.1
    }
  }
}
layer {
  name: "relu7"
  type: "ReLU"
  bottom: "fc7"
  top: "fc7"
}
layer {
  name: "drop7"
  type: "Dropout"
  bottom: "fc7"
  top: "fc7"
  dropout_param {
    dropout_ratio: 0.5
  }
}
layer {
  name: "fc8_ft_bow"
  type: "InnerProduct"
  bottom: "fc7"
  top: "fc8_ft_bow"
  param {
    lr_mult: 10
    decay_mult: 1
  }
  param {
    lr_mult: 20
    decay_mult: 0
  }
  inner_product_param {
    num_output: 713
    weight_filler {
      type: "gaussian"
      std: 0.005
    }
    bias_filler {
      type: "constant"
      value: 0.1
    }
  }
}
layer {
  name: "loss"
  type: "SoftmaxWithLoss"
  bottom: "fc8_ft_bow"
  bottom: "label"
  top: "loss"
}
I0827 05:34:24.903365  1173 layer_factory.hpp:77] Creating layer data
I0827 05:34:24.903419  1173 net.cpp:91] Creating Layer data
I0827 05:34:24.903427  1173 net.cpp:409] data -> data
I0827 05:34:24.903466  1173 net.cpp:409] data -> label
I0827 05:34:24.903890  1173 image_data_layer.cpp:38] Opening file /home1/qcz/qcz_pro/building_train/code/model/vgg-16/train_bow.txt
I0827 05:34:24.911023  1173 image_data_layer.cpp:53] Shuffling data
I0827 05:34:24.911720  1173 image_data_layer.cpp:58] A total of 22556 images.
I0827 05:34:24.932018  1173 image_data_layer.cpp:85] output data size: 40,3,224,224
I0827 05:34:24.989997  1173 net.cpp:141] Setting up data
I0827 05:34:24.990057  1173 net.cpp:148] Top shape: 40 3 224 224 (6021120)
I0827 05:34:24.990067  1173 net.cpp:148] Top shape: 40 (40)
I0827 05:34:24.990070  1173 net.cpp:156] Memory required for data: 24084640
I0827 05:34:24.990084  1173 layer_factory.hpp:77] Creating layer conv1_1
I0827 05:34:24.990121  1173 net.cpp:91] Creating Layer conv1_1
I0827 05:34:24.990130  1173 net.cpp:435] conv1_1 <- data
I0827 05:34:24.990150  1173 net.cpp:409] conv1_1 -> conv1_1
I0827 05:34:25.332538  1173 net.cpp:141] Setting up conv1_1
I0827 05:34:25.332593  1173 net.cpp:148] Top shape: 40 64 224 224 (128450560)
I0827 05:34:25.332599  1173 net.cpp:156] Memory required for data: 537886880
I0827 05:34:25.332630  1173 layer_factory.hpp:77] Creating layer relu1_1
I0827 05:34:25.332649  1173 net.cpp:91] Creating Layer relu1_1
I0827 05:34:25.332656  1173 net.cpp:435] relu1_1 <- conv1_1
I0827 05:34:25.332664  1173 net.cpp:396] relu1_1 -> conv1_1 (in-place)
I0827 05:34:25.332950  1173 net.cpp:141] Setting up relu1_1
I0827 05:34:25.332964  1173 net.cpp:148] Top shape: 40 64 224 224 (128450560)
I0827 05:34:25.332969  1173 net.cpp:156] Memory required for data: 1051689120
I0827 05:34:25.332973  1173 layer_factory.hpp:77] Creating layer conv1_2
I0827 05:34:25.332990  1173 net.cpp:91] Creating Layer conv1_2
I0827 05:34:25.332998  1173 net.cpp:435] conv1_2 <- conv1_1
I0827 05:34:25.333008  1173 net.cpp:409] conv1_2 -> conv1_2
I0827 05:34:25.336637  1173 net.cpp:141] Setting up conv1_2
I0827 05:34:25.336702  1173 net.cpp:148] Top shape: 40 64 224 224 (128450560)
I0827 05:34:25.336760  1173 net.cpp:156] Memory required for data: 1565491360
I0827 05:34:25.336787  1173 layer_factory.hpp:77] Creating layer relu1_2
I0827 05:34:25.336812  1173 net.cpp:91] Creating Layer relu1_2
I0827 05:34:25.336827  1173 net.cpp:435] relu1_2 <- conv1_2
I0827 05:34:25.336839  1173 net.cpp:396] relu1_2 -> conv1_2 (in-place)
I0827 05:34:25.338096  1173 net.cpp:141] Setting up relu1_2
I0827 05:34:25.338122  1173 net.cpp:148] Top shape: 40 64 224 224 (128450560)
I0827 05:34:25.338129  1173 net.cpp:156] Memory required for data: 2079293600
I0827 05:34:25.338135  1173 layer_factory.hpp:77] Creating layer pool1
I0827 05:34:25.338155  1173 net.cpp:91] Creating Layer pool1
I0827 05:34:25.338160  1173 net.cpp:435] pool1 <- conv1_2
I0827 05:34:25.338171  1173 net.cpp:409] pool1 -> pool1
I0827 05:34:25.338271  1173 net.cpp:141] Setting up pool1
I0827 05:34:25.338284  1173 net.cpp:148] Top shape: 40 64 112 112 (32112640)
I0827 05:34:25.338287  1173 net.cpp:156] Memory required for data: 2207744160
I0827 05:34:25.338292  1173 layer_factory.hpp:77] Creating layer conv2_1
I0827 05:34:25.338310  1173 net.cpp:91] Creating Layer conv2_1
I0827 05:34:25.338316  1173 net.cpp:435] conv2_1 <- pool1
I0827 05:34:25.338325  1173 net.cpp:409] conv2_1 -> conv2_1
I0827 05:34:25.345219  1173 net.cpp:141] Setting up conv2_1
I0827 05:34:25.345240  1173 net.cpp:148] Top shape: 40 128 112 112 (64225280)
I0827 05:34:25.345247  1173 net.cpp:156] Memory required for data: 2464645280
I0827 05:34:25.345262  1173 layer_factory.hpp:77] Creating layer relu2_1
I0827 05:34:25.345271  1173 net.cpp:91] Creating Layer relu2_1
I0827 05:34:25.345276  1173 net.cpp:435] relu2_1 <- conv2_1
I0827 05:34:25.345284  1173 net.cpp:396] relu2_1 -> conv2_1 (in-place)
I0827 05:34:25.346256  1173 net.cpp:141] Setting up relu2_1
I0827 05:34:25.346276  1173 net.cpp:148] Top shape: 40 128 112 112 (64225280)
I0827 05:34:25.346280  1173 net.cpp:156] Memory required for data: 2721546400
I0827 05:34:25.346287  1173 layer_factory.hpp:77] Creating layer conv2_2
I0827 05:34:25.346302  1173 net.cpp:91] Creating Layer conv2_2
I0827 05:34:25.346307  1173 net.cpp:435] conv2_2 <- conv2_1
I0827 05:34:25.346316  1173 net.cpp:409] conv2_2 -> conv2_2
I0827 05:34:25.353864  1173 net.cpp:141] Setting up conv2_2
I0827 05:34:25.353910  1173 net.cpp:148] Top shape: 40 128 112 112 (64225280)
I0827 05:34:25.353917  1173 net.cpp:156] Memory required for data: 2978447520
I0827 05:34:25.353936  1173 layer_factory.hpp:77] Creating layer relu2_2
I0827 05:34:25.353956  1173 net.cpp:91] Creating Layer relu2_2
I0827 05:34:25.353963  1173 net.cpp:435] relu2_2 <- conv2_2
I0827 05:34:25.353973  1173 net.cpp:396] relu2_2 -> conv2_2 (in-place)
I0827 05:34:25.354290  1173 net.cpp:141] Setting up relu2_2
I0827 05:34:25.354306  1173 net.cpp:148] Top shape: 40 128 112 112 (64225280)
I0827 05:34:25.354311  1173 net.cpp:156] Memory required for data: 3235348640
I0827 05:34:25.354316  1173 layer_factory.hpp:77] Creating layer pool2
I0827 05:34:25.354331  1173 net.cpp:91] Creating Layer pool2
I0827 05:34:25.354336  1173 net.cpp:435] pool2 <- conv2_2
I0827 05:34:25.354346  1173 net.cpp:409] pool2 -> pool2
I0827 05:34:25.354413  1173 net.cpp:141] Setting up pool2
I0827 05:34:25.354423  1173 net.cpp:148] Top shape: 40 128 56 56 (16056320)
I0827 05:34:25.354429  1173 net.cpp:156] Memory required for data: 3299573920
I0827 05:34:25.354434  1173 layer_factory.hpp:77] Creating layer conv3_1
I0827 05:34:25.354454  1173 net.cpp:91] Creating Layer conv3_1
I0827 05:34:25.354460  1173 net.cpp:435] conv3_1 <- pool2
I0827 05:34:25.354470  1173 net.cpp:409] conv3_1 -> conv3_1
I0827 05:34:25.367596  1173 net.cpp:141] Setting up conv3_1
I0827 05:34:25.367636  1173 net.cpp:148] Top shape: 40 256 56 56 (32112640)
I0827 05:34:25.367643  1173 net.cpp:156] Memory required for data: 3428024480
I0827 05:34:25.367662  1173 layer_factory.hpp:77] Creating layer relu3_1
I0827 05:34:25.367677  1173 net.cpp:91] Creating Layer relu3_1
I0827 05:34:25.367683  1173 net.cpp:435] relu3_1 <- conv3_1
I0827 05:34:25.367714  1173 net.cpp:396] relu3_1 -> conv3_1 (in-place)
I0827 05:34:25.367944  1173 net.cpp:141] Setting up relu3_1
I0827 05:34:25.367956  1173 net.cpp:148] Top shape: 40 256 56 56 (32112640)
I0827 05:34:25.367961  1173 net.cpp:156] Memory required for data: 3556475040
I0827 05:34:25.367966  1173 layer_factory.hpp:77] Creating layer conv3_2
I0827 05:34:25.367981  1173 net.cpp:91] Creating Layer conv3_2
I0827 05:34:25.367990  1173 net.cpp:435] conv3_2 <- conv3_1
I0827 05:34:25.367998  1173 net.cpp:409] conv3_2 -> conv3_2
I0827 05:34:25.392580  1173 net.cpp:141] Setting up conv3_2
I0827 05:34:25.392622  1173 net.cpp:148] Top shape: 40 256 56 56 (32112640)
I0827 05:34:25.392629  1173 net.cpp:156] Memory required for data: 3684925600
I0827 05:34:25.392644  1173 layer_factory.hpp:77] Creating layer relu3_2
I0827 05:34:25.392660  1173 net.cpp:91] Creating Layer relu3_2
I0827 05:34:25.392668  1173 net.cpp:435] relu3_2 <- conv3_2
I0827 05:34:25.392675  1173 net.cpp:396] relu3_2 -> conv3_2 (in-place)
I0827 05:34:25.392895  1173 net.cpp:141] Setting up relu3_2
I0827 05:34:25.392909  1173 net.cpp:148] Top shape: 40 256 56 56 (32112640)
I0827 05:34:25.392913  1173 net.cpp:156] Memory required for data: 3813376160
I0827 05:34:25.392918  1173 layer_factory.hpp:77] Creating layer conv3_3
I0827 05:34:25.392935  1173 net.cpp:91] Creating Layer conv3_3
I0827 05:34:25.392951  1173 net.cpp:435] conv3_3 <- conv3_2
I0827 05:34:25.392959  1173 net.cpp:409] conv3_3 -> conv3_3
I0827 05:34:25.417114  1173 net.cpp:141] Setting up conv3_3
I0827 05:34:25.417152  1173 net.cpp:148] Top shape: 40 256 56 56 (32112640)
I0827 05:34:25.417158  1173 net.cpp:156] Memory required for data: 3941826720
I0827 05:34:25.417173  1173 layer_factory.hpp:77] Creating layer relu3_3
I0827 05:34:25.417191  1173 net.cpp:91] Creating Layer relu3_3
I0827 05:34:25.417197  1173 net.cpp:435] relu3_3 <- conv3_3
I0827 05:34:25.417222  1173 net.cpp:396] relu3_3 -> conv3_3 (in-place)
I0827 05:34:25.417464  1173 net.cpp:141] Setting up relu3_3
I0827 05:34:25.417479  1173 net.cpp:148] Top shape: 40 256 56 56 (32112640)
I0827 05:34:25.417482  1173 net.cpp:156] Memory required for data: 4070277280
I0827 05:34:25.417487  1173 layer_factory.hpp:77] Creating layer pool3
I0827 05:34:25.417500  1173 net.cpp:91] Creating Layer pool3
I0827 05:34:25.417505  1173 net.cpp:435] pool3 <- conv3_3
I0827 05:34:25.417529  1173 net.cpp:409] pool3 -> pool3
I0827 05:34:25.417587  1173 net.cpp:141] Setting up pool3
I0827 05:34:25.417596  1173 net.cpp:148] Top shape: 40 256 28 28 (8028160)
I0827 05:34:25.417620  1173 net.cpp:156] Memory required for data: 4102389920
I0827 05:34:25.417624  1173 layer_factory.hpp:77] Creating layer conv4_1
I0827 05:34:25.417657  1173 net.cpp:91] Creating Layer conv4_1
I0827 05:34:25.417662  1173 net.cpp:435] conv4_1 <- pool3
I0827 05:34:25.417676  1173 net.cpp:409] conv4_1 -> conv4_1
I0827 05:34:25.457118  1173 net.cpp:141] Setting up conv4_1
I0827 05:34:25.457180  1173 net.cpp:148] Top shape: 40 512 28 28 (16056320)
I0827 05:34:25.457185  1173 net.cpp:156] Memory required for data: 4166615200
I0827 05:34:25.457201  1173 layer_factory.hpp:77] Creating layer relu4_1
I0827 05:34:25.457218  1173 net.cpp:91] Creating Layer relu4_1
I0827 05:34:25.457224  1173 net.cpp:435] relu4_1 <- conv4_1
I0827 05:34:25.457234  1173 net.cpp:396] relu4_1 -> conv4_1 (in-place)
I0827 05:34:25.458212  1173 net.cpp:141] Setting up relu4_1
I0827 05:34:25.458252  1173 net.cpp:148] Top shape: 40 512 28 28 (16056320)
I0827 05:34:25.458256  1173 net.cpp:156] Memory required for data: 4230840480
I0827 05:34:25.458262  1173 layer_factory.hpp:77] Creating layer conv4_2
I0827 05:34:25.458288  1173 net.cpp:91] Creating Layer conv4_2
I0827 05:34:25.458295  1173 net.cpp:435] conv4_2 <- conv4_1
I0827 05:34:25.458305  1173 net.cpp:409] conv4_2 -> conv4_2
I0827 05:34:25.529192  1173 net.cpp:141] Setting up conv4_2
I0827 05:34:25.529248  1173 net.cpp:148] Top shape: 40 512 28 28 (16056320)
I0827 05:34:25.529253  1173 net.cpp:156] Memory required for data: 4295065760
I0827 05:34:25.529270  1173 layer_factory.hpp:77] Creating layer relu4_2
I0827 05:34:25.529306  1173 net.cpp:91] Creating Layer relu4_2
I0827 05:34:25.529312  1173 net.cpp:435] relu4_2 <- conv4_2
I0827 05:34:25.529336  1173 net.cpp:396] relu4_2 -> conv4_2 (in-place)
I0827 05:34:25.530544  1173 net.cpp:141] Setting up relu4_2
I0827 05:34:25.530577  1173 net.cpp:148] Top shape: 40 512 28 28 (16056320)
I0827 05:34:25.530581  1173 net.cpp:156] Memory required for data: 4359291040
I0827 05:34:25.530593  1173 layer_factory.hpp:77] Creating layer conv4_3
I0827 05:34:25.530611  1173 net.cpp:91] Creating Layer conv4_3
I0827 05:34:25.530614  1173 net.cpp:435] conv4_3 <- conv4_2
I0827 05:34:25.530622  1173 net.cpp:409] conv4_3 -> conv4_3
I0827 05:34:25.602572  1173 net.cpp:141] Setting up conv4_3
I0827 05:34:25.602604  1173 net.cpp:148] Top shape: 40 512 28 28 (16056320)
I0827 05:34:25.602609  1173 net.cpp:156] Memory required for data: 4423516320
I0827 05:34:25.602619  1173 layer_factory.hpp:77] Creating layer relu4_3
I0827 05:34:25.602630  1173 net.cpp:91] Creating Layer relu4_3
I0827 05:34:25.602636  1173 net.cpp:435] relu4_3 <- conv4_3
I0827 05:34:25.602644  1173 net.cpp:396] relu4_3 -> conv4_3 (in-place)
I0827 05:34:25.602871  1173 net.cpp:141] Setting up relu4_3
I0827 05:34:25.602881  1173 net.cpp:148] Top shape: 40 512 28 28 (16056320)
I0827 05:34:25.602885  1173 net.cpp:156] Memory required for data: 4487741600
I0827 05:34:25.602890  1173 layer_factory.hpp:77] Creating layer pool4
I0827 05:34:25.602901  1173 net.cpp:91] Creating Layer pool4
I0827 05:34:25.602908  1173 net.cpp:435] pool4 <- conv4_3
I0827 05:34:25.602917  1173 net.cpp:409] pool4 -> pool4
I0827 05:34:25.602962  1173 net.cpp:141] Setting up pool4
I0827 05:34:25.602972  1173 net.cpp:148] Top shape: 40 512 14 14 (4014080)
I0827 05:34:25.602975  1173 net.cpp:156] Memory required for data: 4503797920
I0827 05:34:25.602978  1173 layer_factory.hpp:77] Creating layer conv5_1
I0827 05:34:25.602993  1173 net.cpp:91] Creating Layer conv5_1
I0827 05:34:25.602998  1173 net.cpp:435] conv5_1 <- pool4
I0827 05:34:25.603010  1173 net.cpp:409] conv5_1 -> conv5_1
I0827 05:34:25.675339  1173 net.cpp:141] Setting up conv5_1
I0827 05:34:25.675416  1173 net.cpp:148] Top shape: 40 512 14 14 (4014080)
I0827 05:34:25.675423  1173 net.cpp:156] Memory required for data: 4519854240
I0827 05:34:25.675441  1173 layer_factory.hpp:77] Creating layer relu5_1
I0827 05:34:25.675459  1173 net.cpp:91] Creating Layer relu5_1
I0827 05:34:25.675467  1173 net.cpp:435] relu5_1 <- conv5_1
I0827 05:34:25.675490  1173 net.cpp:396] relu5_1 -> conv5_1 (in-place)
I0827 05:34:25.675761  1173 net.cpp:141] Setting up relu5_1
I0827 05:34:25.675773  1173 net.cpp:148] Top shape: 40 512 14 14 (4014080)
I0827 05:34:25.675777  1173 net.cpp:156] Memory required for data: 4535910560
I0827 05:34:25.675801  1173 layer_factory.hpp:77] Creating layer conv5_2
I0827 05:34:25.675822  1173 net.cpp:91] Creating Layer conv5_2
I0827 05:34:25.675827  1173 net.cpp:435] conv5_2 <- conv5_1
I0827 05:34:25.675837  1173 net.cpp:409] conv5_2 -> conv5_2
I0827 05:34:25.747144  1173 net.cpp:141] Setting up conv5_2
I0827 05:34:25.747195  1173 net.cpp:148] Top shape: 40 512 14 14 (4014080)
I0827 05:34:25.747200  1173 net.cpp:156] Memory required for data: 4551966880
I0827 05:34:25.747210  1173 layer_factory.hpp:77] Creating layer relu5_2
I0827 05:34:25.747228  1173 net.cpp:91] Creating Layer relu5_2
I0827 05:34:25.747236  1173 net.cpp:435] relu5_2 <- conv5_2
I0827 05:34:25.747248  1173 net.cpp:396] relu5_2 -> conv5_2 (in-place)
I0827 05:34:25.747485  1173 net.cpp:141] Setting up relu5_2
I0827 05:34:25.747496  1173 net.cpp:148] Top shape: 40 512 14 14 (4014080)
I0827 05:34:25.747500  1173 net.cpp:156] Memory required for data: 4568023200
I0827 05:34:25.747504  1173 layer_factory.hpp:77] Creating layer conv5_3
I0827 05:34:25.747520  1173 net.cpp:91] Creating Layer conv5_3
I0827 05:34:25.747527  1173 net.cpp:435] conv5_3 <- conv5_2
I0827 05:34:25.747552  1173 net.cpp:409] conv5_3 -> conv5_3
I0827 05:34:25.819321  1173 net.cpp:141] Setting up conv5_3
I0827 05:34:25.819370  1173 net.cpp:148] Top shape: 40 512 14 14 (4014080)
I0827 05:34:25.819398  1173 net.cpp:156] Memory required for data: 4584079520
I0827 05:34:25.819411  1173 layer_factory.hpp:77] Creating layer relu5_3
I0827 05:34:25.819422  1173 net.cpp:91] Creating Layer relu5_3
I0827 05:34:25.819427  1173 net.cpp:435] relu5_3 <- conv5_3
I0827 05:34:25.819437  1173 net.cpp:396] relu5_3 -> conv5_3 (in-place)
I0827 05:34:25.819686  1173 net.cpp:141] Setting up relu5_3
I0827 05:34:25.819699  1173 net.cpp:148] Top shape: 40 512 14 14 (4014080)
I0827 05:34:25.819702  1173 net.cpp:156] Memory required for data: 4600135840
I0827 05:34:25.819706  1173 layer_factory.hpp:77] Creating layer pool5
I0827 05:34:25.819716  1173 net.cpp:91] Creating Layer pool5
I0827 05:34:25.819723  1173 net.cpp:435] pool5 <- conv5_3
I0827 05:34:25.819732  1173 net.cpp:409] pool5 -> pool5
I0827 05:34:25.819792  1173 net.cpp:141] Setting up pool5
I0827 05:34:25.819799  1173 net.cpp:148] Top shape: 40 512 7 7 (1003520)
I0827 05:34:25.819803  1173 net.cpp:156] Memory required for data: 4604149920
I0827 05:34:25.819808  1173 layer_factory.hpp:77] Creating layer fc6
I0827 05:34:25.819819  1173 net.cpp:91] Creating Layer fc6
I0827 05:34:25.819825  1173 net.cpp:435] fc6 <- pool5
I0827 05:34:25.819850  1173 net.cpp:409] fc6 -> fc6
I0827 05:34:29.262305  1173 net.cpp:141] Setting up fc6
I0827 05:34:29.262382  1173 net.cpp:148] Top shape: 40 4096 (163840)
I0827 05:34:29.262389  1173 net.cpp:156] Memory required for data: 4604805280
I0827 05:34:29.262415  1173 layer_factory.hpp:77] Creating layer relu6
I0827 05:34:29.262437  1173 net.cpp:91] Creating Layer relu6
I0827 05:34:29.262449  1173 net.cpp:435] relu6 <- fc6
I0827 05:34:29.262459  1173 net.cpp:396] relu6 -> fc6 (in-place)
I0827 05:34:29.264021  1173 net.cpp:141] Setting up relu6
I0827 05:34:29.264044  1173 net.cpp:148] Top shape: 40 4096 (163840)
I0827 05:34:29.264048  1173 net.cpp:156] Memory required for data: 4605460640
I0827 05:34:29.264053  1173 layer_factory.hpp:77] Creating layer drop6
I0827 05:34:29.264084  1173 net.cpp:91] Creating Layer drop6
I0827 05:34:29.264091  1173 net.cpp:435] drop6 <- fc6
I0827 05:34:29.264097  1173 net.cpp:396] drop6 -> fc6 (in-place)
I0827 05:34:29.264178  1173 net.cpp:141] Setting up drop6
I0827 05:34:29.264189  1173 net.cpp:148] Top shape: 40 4096 (163840)
I0827 05:34:29.264194  1173 net.cpp:156] Memory required for data: 4606116000
I0827 05:34:29.264199  1173 layer_factory.hpp:77] Creating layer fc7
I0827 05:34:29.264214  1173 net.cpp:91] Creating Layer fc7
I0827 05:34:29.264220  1173 net.cpp:435] fc7 <- fc6
I0827 05:34:29.264230  1173 net.cpp:409] fc7 -> fc7
I0827 05:34:29.800936  1173 net.cpp:141] Setting up fc7
I0827 05:34:29.800988  1173 net.cpp:148] Top shape: 40 4096 (163840)
I0827 05:34:29.800993  1173 net.cpp:156] Memory required for data: 4606771360
I0827 05:34:29.801005  1173 layer_factory.hpp:77] Creating layer relu7
I0827 05:34:29.801020  1173 net.cpp:91] Creating Layer relu7
I0827 05:34:29.801026  1173 net.cpp:435] relu7 <- fc7
I0827 05:34:29.801034  1173 net.cpp:396] relu7 -> fc7 (in-place)
I0827 05:34:29.801329  1173 net.cpp:141] Setting up relu7
I0827 05:34:29.801339  1173 net.cpp:148] Top shape: 40 4096 (163840)
I0827 05:34:29.801343  1173 net.cpp:156] Memory required for data: 4607426720
I0827 05:34:29.801347  1173 layer_factory.hpp:77] Creating layer drop7
I0827 05:34:29.801360  1173 net.cpp:91] Creating Layer drop7
I0827 05:34:29.801367  1173 net.cpp:435] drop7 <- fc7
I0827 05:34:29.801373  1173 net.cpp:396] drop7 -> fc7 (in-place)
I0827 05:34:29.801435  1173 net.cpp:141] Setting up drop7
I0827 05:34:29.801442  1173 net.cpp:148] Top shape: 40 4096 (163840)
I0827 05:34:29.801446  1173 net.cpp:156] Memory required for data: 4608082080
I0827 05:34:29.801450  1173 layer_factory.hpp:77] Creating layer fc8_ft_bow
I0827 05:34:29.801458  1173 net.cpp:91] Creating Layer fc8_ft_bow
I0827 05:34:29.801466  1173 net.cpp:435] fc8_ft_bow <- fc7
I0827 05:34:29.801489  1173 net.cpp:409] fc8_ft_bow -> fc8_ft_bow
I0827 05:34:29.884443  1173 net.cpp:141] Setting up fc8_ft_bow
I0827 05:34:29.884526  1173 net.cpp:148] Top shape: 40 713 (28520)
I0827 05:34:29.884584  1173 net.cpp:156] Memory required for data: 4608196160
I0827 05:34:29.884614  1173 layer_factory.hpp:77] Creating layer loss
I0827 05:34:29.884631  1173 net.cpp:91] Creating Layer loss
I0827 05:34:29.884646  1173 net.cpp:435] loss <- fc8_ft_bow
I0827 05:34:29.884656  1173 net.cpp:435] loss <- label
I0827 05:34:29.884670  1173 net.cpp:409] loss -> loss
I0827 05:34:29.884730  1173 layer_factory.hpp:77] Creating layer loss
…
I0827 05:34:29.886920  1173 net.cpp:323] The NetState phase (1) differed from the phase (0) specified by a rule in layer data
I0827 05:34:29.887257  1173 net.cpp:49] Initializing net from parameters: 
name: "VGG16"
state {
  phase: TEST
}
layer {
  name: "data"
  type: "ImageData"
  top: "data"
  top: "label"
  include {
    phase: TEST
  }
  transform_param {
    mirror: false
    crop_size: 224
    mean_value: 104.006
    mean_value: 116.668
    mean_value: 122.678
  }
  image_data_param {
    source: "/home1/qcz/qcz_pro/building_train/code/model/vgg-16/val_bow.txt"
    batch_size: 40
    new_height: 256
    new_width: 256
  }
}
layer {
  name: "conv1_1"
  type: "Convolution"
  bottom: "data"
  top: "conv1_1"
  param {
    lr_mult: 1
    decay_mult: 1
  }
  param {
    lr_mult: 2
    decay_mult: 0
  }
  convolution_param {
    num_output: 64
    pad: 1
    kernel_size: 3
    weight_filler {
      type: "gaussian"
      std: 0.01
    }
    bias_filler {
      type: "constant"
      value: 0
    }
  }
}
layer {
  name: "relu1_1"
  type: "ReLU"
  bottom: "conv1_1"
  top: "conv1_1"
}
layer {
  name: "conv1_2"
  type: "Convolution"
  bottom: "conv1_1"
  top: "conv1_2"
  param {
    lr_mult: 1
    decay_mult: 1
  }
  param {
    lr_mult: 2
    decay_mult: 0
  }
  convolution_param {
    num_output: 64
    pad: 1
    kernel_size: 3
    weight_filler {
      type: "gaussian"
      std: 0.01
    }
    bias_filler {
      type: "constant"
      value: 0
    }
  }
}
layer {
  name: "relu1_2"
  type: "ReLU"
  bottom: "conv1_2"
  top: "conv1_2"
}
layer {
  name: "pool1"
  type: "Pooling"
  bottom: "conv1_2"
  top: "pool1"
  pooling_param {
    pool: MAX
    kernel_size: 2
    stride: 2
  }
}
layer {
  name: "conv2_1"
  type: "Convolution"
  bottom: "pool1"
  top: "conv2_1"
  param {
    lr_mult: 1
    decay_mult: 1
  }
  param {
    lr_mult: 2
    decay_mult: 0
  }
  convolution_param {
    num_output: 128
    pad: 1
    kernel_size: 3
    weight_filler {
      type: "gaussian"
      std: 0.01
    }
    bias_filler {
      type: "constant"
      value: 0
    }
  }
}
layer {
  name: "relu2_1"
  type: "ReLU"
  bottom: "conv2_1"
  top: "conv2_1"
}
layer {
  name: "conv2_2"
  type: "Convolution"
  bottom: "conv2_1"
  top: "conv2_2"
  param {
    lr_mult: 1
    decay_mult: 1
  }
  param {
    lr_mult: 2
    decay_mult: 0
  }
  convolution_param {
    num_output: 128
    pad: 1
    kernel_size: 3
    weight_filler {
      type: "gaussian"
      std: 0.01
    }
    bias_filler {
      type: "constant"
      value: 0
    }
  }
}
layer {
  name: "relu2_2"
  type: "ReLU"
  bottom: "conv2_2"
  top: "conv2_2"
}
layer {
  name: "pool2"
  type: "Pooling"
  bottom: "conv2_2"
  top: "pool2"
  pooling_param {
    pool: MAX
    kernel_size: 2
    stride: 2
  }
}
layer {
  name: "conv3_1"
  type: "Convolution"
  bottom: "pool2"
  top: "conv3_1"
  param {
    lr_mult: 1
    decay_mult: 1
  }
  param {
    lr_mult: 2
    decay_mult: 0
  }
  convolution_param {
    num_output: 256
    pad: 1
    kernel_size: 3
    weight_filler {
      type: "gaussian"
      std: 0.01
    }
    bias_filler {
      type: "constant"
      value: 0
    }
  }
}
layer {
  name: "relu3_1"
  type: "ReLU"
  bottom: "conv3_1"
  top: "conv3_1"
}
layer {
  name: "conv3_2"
  type: "Convolution"
  bottom: "conv3_1"
  top: "conv3_2"
  param {
    lr_mult: 1
    decay_mult: 1
  }
  param {
    lr_mult: 2
    decay_mult: 0
  }
  convolution_param {
    num_output: 256
    pad: 1
    kernel_size: 3
    weight_filler {
      type: "gaussian"
      std: 0.01
    }
    bias_filler {
      type: "constant"
      value: 0
    }
  }
}
layer {
  name: "relu3_2"
  type: "ReLU"
  bottom: "conv3_2"
  top: "conv3_2"
}
layer {
  name: "conv3_3"
  type: "Convolution"
  bottom: "conv3_2"
  top: "conv3_3"
  param {
    lr_mult: 1
    decay_mult: 1
  }
  param {
    lr_mult: 2
    decay_mult: 0
  }
  convolution_param {
    num_output: 256
    pad: 1
    kernel_size: 3
    weight_filler {
      type: "gaussian"
      std: 0.01
    }
    bias_filler {
      type: "constant"
      value: 0
    }
  }
}
layer {
  name: "relu3_3"
  type: "ReLU"
  bottom: "conv3_3"
  top: "conv3_3"
}
layer {
  name: "pool3"
  type: "Pooling"
  bottom: "conv3_3"
  top: "pool3"
  pooling_param {
    pool: MAX
    kernel_size: 2
    stride: 2
  }
}
layer {
  name: "conv4_1"
  type: "Convolution"
  bottom: "pool3"
  top: "conv4_1"
  param {
    lr_mult: 1
    decay_mult: 1
  }
  param {
    lr_mult: 2
    decay_mult: 0
  }
  convolution_param {
    num_output: 512
    pad: 1
    kernel_size: 3
    weight_filler {
      type: "gaussian"
      std: 0.01
    }
    bias_filler {
      type: "constant"
      value: 0
    }
  }
}
layer {
  name: "relu4_1"
  type: "ReLU"
  bottom: "conv4_1"
  top: "conv4_1"
}
layer {
  name: "conv4_2"
  type: "Convolution"
  bottom: "conv4_1"
  top: "conv4_2"
  param {
    lr_mult: 1
    decay_mult: 1
  }
  param {
    lr_mult: 2
    decay_mult: 0
  }
  convolution_param {
    num_output: 512
    pad: 1
    kernel_size: 3
    weight_filler {
      type: "gaussian"
      std: 0.01
    }
    bias_filler {
      type: "constant"
      value: 0
    }
  }
}
layer {
  name: "relu4_2"
  type: "ReLU"
  bottom: "conv4_2"
  top: "conv4_2"
}
layer {
  name: "conv4_3"
  type: "Convolution"
  bottom: "conv4_2"
  top: "conv4_3"
  param {
    lr_mult: 1
    decay_mult: 1
  }
  param {
    lr_mult: 2
    decay_mult: 0
  }
  convolution_param {
    num_output: 512
    pad: 1
    kernel_size: 3
    weight_filler {
      type: "gaussian"
      std: 0.01
    }
    bias_filler {
      type: "constant"
      value: 0
    }
  }
}
layer {
  name: "relu4_3"
  type: "ReLU"
  bottom: "conv4_3"
  top: "conv4_3"
}
layer {
  name: "pool4"
  type: "Pooling"
  bottom: "conv4_3"
  top: "pool4"
  pooling_param {
    pool: MAX
    kernel_size: 2
    stride: 2
  }
}
layer {
  name: "conv5_1"
  type: "Convolution"
  bottom: "pool4"
  top: "conv5_1"
  param {
    lr_mult: 1
    decay_mult: 1
  }
  param {
    lr_mult: 2
    decay_mult: 0
  }
  convolution_param {
    num_output: 512
    pad: 1
    kernel_size: 3
    weight_filler {
      type: "gaussian"
      std: 0.01
    }
    bias_filler {
      type: "constant"
      value: 0
    }
  }
}
layer {
  name: "relu5_1"
  type: "ReLU"
  bottom: "conv5_1"
  top: "conv5_1"
}
layer {
  name: "conv5_2"
  type: "Convolution"
  bottom: "conv5_1"
  top: "conv5_2"
  param {
    lr_mult: 1
    decay_mult: 1
  }
  param {
    lr_mult: 2
    decay_mult: 0
  }
  convolution_param {
    num_output: 512
    pad: 1
    kernel_size: 3
    weight_filler {
      type: "gaussian"
      std: 0.01
    }
    bias_filler {
      type: "constant"
      value: 0
    }
  }
}
layer {
  name: "relu5_2"
  type: "ReLU"
  bottom: "conv5_2"
  top: "conv5_2"
}
layer {
  name: "conv5_3"
  type: "Convolution"
  bottom: "conv5_2"
  top: "conv5_3"
  param {
    lr_mult: 1
    decay_mult: 1
  }
  param {
    lr_mult: 2
    decay_mult: 0
  }
  convolution_param {
    num_output: 512
    pad: 1
    kernel_size: 3
    weight_filler {
      type: "gaussian"
      std: 0.01
    }
    bias_filler {
      type: "constant"
      value: 0
    }
  }
}
layer {
  name: "relu5_3"
  type: "ReLU"
  bottom: "conv5_3"
  top: "conv5_3"
}
layer {
  name: "pool5"
  type: "Pooling"
  bottom: "conv5_3"
  top: "pool5"
  pooling_param {
    pool: MAX
    kernel_size: 2
    stride: 2
  }
}
layer {
  name: "fc6"
  type: "InnerProduct"
  bottom: "pool5"
  top: "fc6"
  param {
    lr_mult: 1
    decay_mult: 1
  }
  param {
    lr_mult: 2
    decay_mult: 0
  }
  inner_product_param {
    num_output: 4096
    weight_filler {
      type: "gaussian"
      std: 0.005
    }
    bias_filler {
      type: "constant"
      value: 0.1
    }
  }
}
layer {
  name: "relu6"
  type: "ReLU"
  bottom: "fc6"
  top: "fc6"
}
layer {
  name: "drop6"
  type: "Dropout"
  bottom: "fc6"
  top: "fc6"
  dropout_param {
    dropout_ratio: 0.5
  }
}
layer {
  name: "fc7"
  type: "InnerProduct"
  bottom: "fc6"
  top: "fc7"
  param {
    lr_mult: 1
    decay_mult: 1
  }
  param {
    lr_mult: 2
    decay_mult: 0
  }
  inner_product_param {
    num_output: 4096
    weight_filler {
      type: "gaussian"
      std: 0.005
    }
    bias_filler {
      type: "constant"
      value: 0.1
    }
  }
}
layer {
  name: "relu7"
  type: "ReLU"
  bottom: "fc7"
  top: "fc7"
}
layer {
  name: "drop7"
  type: "Dropout"
  bottom: "fc7"
  top: "fc7"
  dropout_param {
    dropout_ratio: 0.5
  }
}
layer {
  name: "fc8_ft_bow"
  type: "InnerProduct"
  bottom: "fc7"
  top: "fc8_ft_bow"
  param {
    lr_mult: 10
    decay_mult: 1
  }
  param {
    lr_mult: 20
    decay_mult: 0
  }
  inner_product_param {
    num_output: 713
    weight_filler {
      type: "gaussian"
      std: 0.005
    }
    bias_filler {
      type: "constant"
      value: 0.1
    }
  }
}
layer {
  name: "accuracy_at_1"
  type: "Accuracy"
  bottom: "fc8_ft_bow"
  bottom: "label"
  top: "accuracy_at_1"
  include {
    phase: TEST
  }
  accuracy_param {
    top_k: 1
  }
}
layer {
  name: "accuracy_at_5"
  type: "Accuracy"
  bottom: "fc8_ft_bow"
  bottom: "label"
  top: "accuracy_at_5"
  include {
    phase: TEST
  }
  accuracy_param {
    top_k: 5
  }
}
layer {
  name: "loss"
  type: "SoftmaxWithLoss"
  bottom: "fc8_ft_bow"
  bottom: "label"
  top: "loss"
}
I0827 05:34:29.887451  1173 layer_factory.hpp:77] Creating layer data
I0827 05:34:29.887468  1173 net.cpp:91] Creating Layer data
I0827 05:34:29.887473  1173 net.cpp:409] data -> data
I0827 05:34:29.887482  1173 net.cpp:409] data -> label
I0827 05:34:29.887490  1173 image_data_layer.cpp:38] Opening file /home1/qcz/qcz_pro/building_train/code/model/vgg-16/val_bow.txt
I0827 05:34:29.889101  1173 image_data_layer.cpp:58] A total of 6003 images.
I0827 05:34:29.890972  1173 image_data_layer.cpp:85] output data size: 40,3,224,224
I0827 05:34:29.941408  1173 net.cpp:141] Setting up data
I0827 05:34:29.941460  1173 net.cpp:148] Top shape: 40 3 224 224 (6021120)
I0827 05:34:29.941468  1173 net.cpp:148] Top shape: 40 (40)
I0827 05:34:29.941473  1173 net.cpp:156] Memory required for data: 24084640
I0827 05:34:29.941483  1173 layer_factory.hpp:77] Creating layer label_data_1_split
I0827 05:34:29.941500  1173 net.cpp:91] Creating Layer label_data_1_split
I0827 05:34:29.941506  1173 net.cpp:435] label_data_1_split <- label
I0827 05:34:29.941517  1173 net.cpp:409] label_data_1_split -> label_data_1_split_0
I0827 05:34:29.941531  1173 net.cpp:409] label_data_1_split -> label_data_1_split_1
I0827 05:34:29.941553  1173 net.cpp:409] label_data_1_split -> label_data_1_split_2
I0827 05:34:29.941663  1173 net.cpp:141] Setting up label_data_1_split
I0827 05:34:29.941671  1173 net.cpp:148] Top shape: 40 (40)
I0827 05:34:29.941676  1173 net.cpp:148] Top shape: 40 (40)
I0827 05:34:29.941681  1173 net.cpp:148] Top shape: 40 (40)
I0827 05:34:29.941685  1173 net.cpp:156] Memory required for data: 24085120
I0827 05:34:29.941690  1173 layer_factory.hpp:77] Creating layer conv1_1
I0827 05:34:29.941709  1173 net.cpp:91] Creating Layer conv1_1
I0827 05:34:29.941716  1173 net.cpp:435] conv1_1 <- data
I0827 05:34:29.941725  1173 net.cpp:409] conv1_1 -> conv1_1
I0827 05:34:29.944223  1173 net.cpp:141] Setting up conv1_1
I0827 05:34:29.944243  1173 net.cpp:148] Top shape: 40 64 224 224 (128450560)
I0827 05:34:29.944249  1173 net.cpp:156] Memory required for data: 537887360
I0827 05:34:29.944262  1173 layer_factory.hpp:77] Creating layer relu1_1
I0827 05:34:29.944272  1173 net.cpp:91] Creating Layer relu1_1
I0827 05:34:29.944277  1173 net.cpp:435] relu1_1 <- conv1_1
I0827 05:34:29.944283  1173 net.cpp:396] relu1_1 -> conv1_1 (in-place)
I0827 05:34:29.944494  1173 net.cpp:141] Setting up relu1_1
I0827 05:34:29.944504  1173 net.cpp:148] Top shape: 40 64 224 224 (128450560)
I0827 05:34:29.944509  1173 net.cpp:156] Memory required for data: 1051689600
I0827 05:34:29.944512  1173 layer_factory.hpp:77] Creating layer conv1_2
I0827 05:34:29.944526  1173 net.cpp:91] Creating Layer conv1_2
I0827 05:34:29.944535  1173 net.cpp:435] conv1_2 <- conv1_1
I0827 05:34:29.944542  1173 net.cpp:409] conv1_2 -> conv1_2
I0827 05:34:29.948310  1173 net.cpp:141] Setting up conv1_2
I0827 05:34:29.948339  1173 net.cpp:148] Top shape: 40 64 224 224 (128450560)
I0827 05:34:29.948367  1173 net.cpp:156] Memory required for data: 1565491840
I0827 05:34:29.948382  1173 layer_factory.hpp:77] Creating layer relu1_2
I0827 05:34:29.948393  1173 net.cpp:91] Creating Layer relu1_2
I0827 05:34:29.948398  1173 net.cpp:435] relu1_2 <- conv1_2
I0827 05:34:29.948405  1173 net.cpp:396] relu1_2 -> conv1_2 (in-place)
I0827 05:34:29.951247  1173 net.cpp:141] Setting up relu1_2
I0827 05:34:29.951266  1173 net.cpp:148] Top shape: 40 64 224 224 (128450560)
I0827 05:34:29.951270  1173 net.cpp:156] Memory required for data: 2079294080
I0827 05:34:29.951274  1173 layer_factory.hpp:77] Creating layer pool1
I0827 05:34:29.951284  1173 net.cpp:91] Creating Layer pool1
I0827 05:34:29.951290  1173 net.cpp:435] pool1 <- conv1_2
I0827 05:34:29.951297  1173 net.cpp:409] pool1 -> pool1
I0827 05:34:29.951356  1173 net.cpp:141] Setting up pool1
I0827 05:34:29.951362  1173 net.cpp:148] Top shape: 40 64 112 112 (32112640)
I0827 05:34:29.951365  1173 net.cpp:156] Memory required for data: 2207744640
I0827 05:34:29.951370  1173 layer_factory.hpp:77] Creating layer conv2_1
I0827 05:34:29.951382  1173 net.cpp:91] Creating Layer conv2_1
I0827 05:34:29.951386  1173 net.cpp:435] conv2_1 <- pool1
I0827 05:34:29.951393  1173 net.cpp:409] conv2_1 -> conv2_1
I0827 05:34:29.956442  1173 net.cpp:141] Setting up conv2_1
I0827 05:34:29.956483  1173 net.cpp:148] Top shape: 40 128 112 112 (64225280)
I0827 05:34:29.956488  1173 net.cpp:156] Memory required for data: 2464645760
I0827 05:34:29.956503  1173 layer_factory.hpp:77] Creating layer relu2_1
I0827 05:34:29.956516  1173 net.cpp:91] Creating Layer relu2_1
I0827 05:34:29.956521  1173 net.cpp:435] relu2_1 <- conv2_1
I0827 05:34:29.956526  1173 net.cpp:396] relu2_1 -> conv2_1 (in-place)
I0827 05:34:29.957458  1173 net.cpp:141] Setting up relu2_1
I0827 05:34:29.957489  1173 net.cpp:148] Top shape: 40 128 112 112 (64225280)
I0827 05:34:29.957492  1173 net.cpp:156] Memory required for data: 2721546880
I0827 05:34:29.957496  1173 layer_factory.hpp:77] Creating layer conv2_2
I0827 05:34:29.957510  1173 net.cpp:91] Creating Layer conv2_2
I0827 05:34:29.957515  1173 net.cpp:435] conv2_2 <- conv2_1
I0827 05:34:29.957523  1173 net.cpp:409] conv2_2 -> conv2_2
I0827 05:34:29.964196  1173 net.cpp:141] Setting up conv2_2
I0827 05:34:29.964213  1173 net.cpp:148] Top shape: 40 128 112 112 (64225280)
I0827 05:34:29.964220  1173 net.cpp:156] Memory required for data: 2978448000
I0827 05:34:29.964231  1173 layer_factory.hpp:77] Creating layer relu2_2
I0827 05:34:29.964237  1173 net.cpp:91] Creating Layer relu2_2
I0827 05:34:29.964257  1173 net.cpp:435] relu2_2 <- conv2_2
I0827 05:34:29.964263  1173 net.cpp:396] relu2_2 -> conv2_2 (in-place)
I0827 05:34:29.964486  1173 net.cpp:141] Setting up relu2_2
I0827 05:34:29.964498  1173 net.cpp:148] Top shape: 40 128 112 112 (64225280)
I0827 05:34:29.964501  1173 net.cpp:156] Memory required for data: 3235349120
I0827 05:34:29.964510  1173 layer_factory.hpp:77] Creating layer pool2
I0827 05:34:29.964519  1173 net.cpp:91] Creating Layer pool2
I0827 05:34:29.964522  1173 net.cpp:435] pool2 <- conv2_2
I0827 05:34:29.964529  1173 net.cpp:409] pool2 -> pool2
I0827 05:34:29.964582  1173 net.cpp:141] Setting up pool2
I0827 05:34:29.964606  1173 net.cpp:148] Top shape: 40 128 56 56 (16056320)
I0827 05:34:29.964609  1173 net.cpp:156] Memory required for data: 3299574400
I0827 05:34:29.964612  1173 layer_factory.hpp:77] Creating layer conv3_1
I0827 05:34:29.964627  1173 net.cpp:91] Creating Layer conv3_1
I0827 05:34:29.964630  1173 net.cpp:435] conv3_1 <- pool2
I0827 05:34:29.964637  1173 net.cpp:409] conv3_1 -> conv3_1
I0827 05:34:29.975893  1173 net.cpp:141] Setting up conv3_1
I0827 05:34:29.975936  1173 net.cpp:148] Top shape: 40 256 56 56 (32112640)
I0827 05:34:29.975941  1173 net.cpp:156] Memory required for data: 3428024960
I0827 05:34:29.975956  1173 layer_factory.hpp:77] Creating layer relu3_1
I0827 05:34:29.975971  1173 net.cpp:91] Creating Layer relu3_1
I0827 05:34:29.975977  1173 net.cpp:435] relu3_1 <- conv3_1
I0827 05:34:29.975983  1173 net.cpp:396] relu3_1 -> conv3_1 (in-place)
I0827 05:34:29.976267  1173 net.cpp:141] Setting up relu3_1
I0827 05:34:29.976279  1173 net.cpp:148] Top shape: 40 256 56 56 (32112640)
I0827 05:34:29.976284  1173 net.cpp:156] Memory required for data: 3556475520
I0827 05:34:29.976287  1173 layer_factory.hpp:77] Creating layer conv3_2
I0827 05:34:29.976302  1173 net.cpp:91] Creating Layer conv3_2
I0827 05:34:29.976306  1173 net.cpp:435] conv3_2 <- conv3_1
I0827 05:34:29.976315  1173 net.cpp:409] conv3_2 -> conv3_2
I0827 05:34:29.997932  1173 net.cpp:141] Setting up conv3_2
I0827 05:34:29.997978  1173 net.cpp:148] Top shape: 40 256 56 56 (32112640)
I0827 05:34:29.997983  1173 net.cpp:156] Memory required for data: 3684926080
I0827 05:34:29.997997  1173 layer_factory.hpp:77] Creating layer relu3_2
I0827 05:34:29.998018  1173 net.cpp:91] Creating Layer relu3_2
I0827 05:34:29.998023  1173 net.cpp:435] relu3_2 <- conv3_2
I0827 05:34:29.998033  1173 net.cpp:396] relu3_2 -> conv3_2 (in-place)
I0827 05:34:29.998286  1173 net.cpp:141] Setting up relu3_2
I0827 05:34:29.998299  1173 net.cpp:148] Top shape: 40 256 56 56 (32112640)
I0827 05:34:29.998303  1173 net.cpp:156] Memory required for data: 3813376640
I0827 05:34:29.998308  1173 layer_factory.hpp:77] Creating layer conv3_3
I0827 05:34:29.998327  1173 net.cpp:91] Creating Layer conv3_3
I0827 05:34:29.998332  1173 net.cpp:435] conv3_3 <- conv3_2
I0827 05:34:29.998338  1173 net.cpp:409] conv3_3 -> conv3_3
I0827 05:34:30.020251  1173 net.cpp:141] Setting up conv3_3
I0827 05:34:30.020295  1173 net.cpp:148] Top shape: 40 256 56 56 (32112640)
I0827 05:34:30.020301  1173 net.cpp:156] Memory required for data: 3941827200
I0827 05:34:30.020313  1173 layer_factory.hpp:77] Creating layer relu3_3
I0827 05:34:30.020324  1173 net.cpp:91] Creating Layer relu3_3
I0827 05:34:30.020330  1173 net.cpp:435] relu3_3 <- conv3_3
I0827 05:34:30.020347  1173 net.cpp:396] relu3_3 -> conv3_3 (in-place)
I0827 05:34:30.020579  1173 net.cpp:141] Setting up relu3_3
I0827 05:34:30.020592  1173 net.cpp:148] Top shape: 40 256 56 56 (32112640)
I0827 05:34:30.020596  1173 net.cpp:156] Memory required for data: 4070277760
I0827 05:34:30.020601  1173 layer_factory.hpp:77] Creating layer pool3
I0827 05:34:30.020608  1173 net.cpp:91] Creating Layer pool3
I0827 05:34:30.020612  1173 net.cpp:435] pool3 <- conv3_3
I0827 05:34:30.020619  1173 net.cpp:409] pool3 -> pool3
I0827 05:34:30.020673  1173 net.cpp:141] Setting up pool3
I0827 05:34:30.020680  1173 net.cpp:148] Top shape: 40 256 28 28 (8028160)
I0827 05:34:30.020684  1173 net.cpp:156] Memory required for data: 4102390400
I0827 05:34:30.020687  1173 layer_factory.hpp:77] Creating layer conv4_1
I0827 05:34:30.020702  1173 net.cpp:91] Creating Layer conv4_1
I0827 05:34:30.020721  1173 net.cpp:435] conv4_1 <- pool3
I0827 05:34:30.020727  1173 net.cpp:409] conv4_1 -> conv4_1
I0827 05:34:30.060497  1173 net.cpp:141] Setting up conv4_1
I0827 05:34:30.060526  1173 net.cpp:148] Top shape: 40 512 28 28 (16056320)
I0827 05:34:30.060531  1173 net.cpp:156] Memory required for data: 4166615680
I0827 05:34:30.060544  1173 layer_factory.hpp:77] Creating layer relu4_1
I0827 05:34:30.060555  1173 net.cpp:91] Creating Layer relu4_1
I0827 05:34:30.060560  1173 net.cpp:435] relu4_1 <- conv4_1
I0827 05:34:30.060567  1173 net.cpp:396] relu4_1 -> conv4_1 (in-place)
I0827 05:34:30.061558  1173 net.cpp:141] Setting up relu4_1
I0827 05:34:30.061573  1173 net.cpp:148] Top shape: 40 512 28 28 (16056320)
I0827 05:34:30.061594  1173 net.cpp:156] Memory required for data: 4230840960
I0827 05:34:30.061599  1173 layer_factory.hpp:77] Creating layer conv4_2
I0827 05:34:30.061619  1173 net.cpp:91] Creating Layer conv4_2
I0827 05:34:30.061624  1173 net.cpp:435] conv4_2 <- conv4_1
I0827 05:34:30.061633  1173 net.cpp:409] conv4_2 -> conv4_2
I0827 05:34:30.137046  1173 net.cpp:141] Setting up conv4_2
I0827 05:34:30.137100  1173 net.cpp:148] Top shape: 40 512 28 28 (16056320)
I0827 05:34:30.137105  1173 net.cpp:156] Memory required for data: 4295066240
I0827 05:34:30.137122  1173 layer_factory.hpp:77] Creating layer relu4_2
I0827 05:34:30.137159  1173 net.cpp:91] Creating Layer relu4_2
I0827 05:34:30.137183  1173 net.cpp:435] relu4_2 <- conv4_2
I0827 05:34:30.137190  1173 net.cpp:396] relu4_2 -> conv4_2 (in-place)
I0827 05:34:30.138381  1173 net.cpp:141] Setting up relu4_2
I0827 05:34:30.138425  1173 net.cpp:148] Top shape: 40 512 28 28 (16056320)
I0827 05:34:30.138429  1173 net.cpp:156] Memory required for data: 4359291520
I0827 05:34:30.138433  1173 layer_factory.hpp:77] Creating layer conv4_3
I0827 05:34:30.138449  1173 net.cpp:91] Creating Layer conv4_3
I0827 05:34:30.138454  1173 net.cpp:435] conv4_3 <- conv4_2
I0827 05:34:30.138461  1173 net.cpp:409] conv4_3 -> conv4_3
I0827 05:34:30.212707  1173 net.cpp:141] Setting up conv4_3
I0827 05:34:30.212754  1173 net.cpp:148] Top shape: 40 512 28 28 (16056320)
I0827 05:34:30.212759  1173 net.cpp:156] Memory required for data: 4423516800
I0827 05:34:30.212769  1173 layer_factory.hpp:77] Creating layer relu4_3
I0827 05:34:30.212782  1173 net.cpp:91] Creating Layer relu4_3
I0827 05:34:30.212788  1173 net.cpp:435] relu4_3 <- conv4_3
I0827 05:34:30.212810  1173 net.cpp:396] relu4_3 -> conv4_3 (in-place)
I0827 05:34:30.213057  1173 net.cpp:141] Setting up relu4_3
I0827 05:34:30.213069  1173 net.cpp:148] Top shape: 40 512 28 28 (16056320)
I0827 05:34:30.213073  1173 net.cpp:156] Memory required for data: 4487742080
I0827 05:34:30.213078  1173 layer_factory.hpp:77] Creating layer pool4
I0827 05:34:30.213085  1173 net.cpp:91] Creating Layer pool4
I0827 05:34:30.213089  1173 net.cpp:435] pool4 <- conv4_3
I0827 05:34:30.213098  1173 net.cpp:409] pool4 -> pool4
I0827 05:34:30.213148  1173 net.cpp:141] Setting up pool4
I0827 05:34:30.213156  1173 net.cpp:148] Top shape: 40 512 14 14 (4014080)
I0827 05:34:30.213160  1173 net.cpp:156] Memory required for data: 4503798400
I0827 05:34:30.213163  1173 layer_factory.hpp:77] Creating layer conv5_1
I0827 05:34:30.213178  1173 net.cpp:91] Creating Layer conv5_1
I0827 05:34:30.213199  1173 net.cpp:435] conv5_1 <- pool4
I0827 05:34:30.213220  1173 net.cpp:409] conv5_1 -> conv5_1
I0827 05:34:30.289377  1173 net.cpp:141] Setting up conv5_1
I0827 05:34:30.289424  1173 net.cpp:148] Top shape: 40 512 14 14 (4014080)
I0827 05:34:30.289429  1173 net.cpp:156] Memory required for data: 4519854720
I0827 05:34:30.289441  1173 layer_factory.hpp:77] Creating layer relu5_1
I0827 05:34:30.289460  1173 net.cpp:91] Creating Layer relu5_1
I0827 05:34:30.289466  1173 net.cpp:435] relu5_1 <- conv5_1
I0827 05:34:30.289489  1173 net.cpp:396] relu5_1 -> conv5_1 (in-place)
I0827 05:34:30.289717  1173 net.cpp:141] Setting up relu5_1
I0827 05:34:30.289728  1173 net.cpp:148] Top shape: 40 512 14 14 (4014080)
I0827 05:34:30.289732  1173 net.cpp:156] Memory required for data: 4535911040
I0827 05:34:30.289736  1173 layer_factory.hpp:77] Creating layer conv5_2
I0827 05:34:30.289752  1173 net.cpp:91] Creating Layer conv5_2
I0827 05:34:30.289757  1173 net.cpp:435] conv5_2 <- conv5_1
I0827 05:34:30.289764  1173 net.cpp:409] conv5_2 -> conv5_2
I0827 05:34:30.365751  1173 net.cpp:141] Setting up conv5_2
I0827 05:34:30.365783  1173 net.cpp:148] Top shape: 40 512 14 14 (4014080)
I0827 05:34:30.365789  1173 net.cpp:156] Memory required for data: 4551967360
I0827 05:34:30.365798  1173 layer_factory.hpp:77] Creating layer relu5_2
I0827 05:34:30.365814  1173 net.cpp:91] Creating Layer relu5_2
I0827 05:34:30.365834  1173 net.cpp:435] relu5_2 <- conv5_2
I0827 05:34:30.365844  1173 net.cpp:396] relu5_2 -> conv5_2 (in-place)
I0827 05:34:30.366073  1173 net.cpp:141] Setting up relu5_2
I0827 05:34:30.366084  1173 net.cpp:148] Top shape: 40 512 14 14 (4014080)
I0827 05:34:30.366088  1173 net.cpp:156] Memory required for data: 4568023680
I0827 05:34:30.366092  1173 layer_factory.hpp:77] Creating layer conv5_3
I0827 05:34:30.366106  1173 net.cpp:91] Creating Layer conv5_3
I0827 05:34:30.366111  1173 net.cpp:435] conv5_3 <- conv5_2
I0827 05:34:30.366119  1173 net.cpp:409] conv5_3 -> conv5_3
I0827 05:34:30.441113  1173 net.cpp:141] Setting up conv5_3
I0827 05:34:30.441145  1173 net.cpp:148] Top shape: 40 512 14 14 (4014080)
I0827 05:34:30.441172  1173 net.cpp:156] Memory required for data: 4584080000
I0827 05:34:30.441184  1173 layer_factory.hpp:77] Creating layer relu5_3
I0827 05:34:30.441196  1173 net.cpp:91] Creating Layer relu5_3
I0827 05:34:30.441217  1173 net.cpp:435] relu5_3 <- conv5_3
I0827 05:34:30.441226  1173 net.cpp:396] relu5_3 -> conv5_3 (in-place)
I0827 05:34:30.441447  1173 net.cpp:141] Setting up relu5_3
I0827 05:34:30.441458  1173 net.cpp:148] Top shape: 40 512 14 14 (4014080)
I0827 05:34:30.441467  1173 net.cpp:156] Memory required for data: 4600136320
I0827 05:34:30.441470  1173 layer_factory.hpp:77] Creating layer pool5
I0827 05:34:30.441483  1173 net.cpp:91] Creating Layer pool5
I0827 05:34:30.441488  1173 net.cpp:435] pool5 <- conv5_3
I0827 05:34:30.441494  1173 net.cpp:409] pool5 -> pool5
I0827 05:34:30.441552  1173 net.cpp:141] Setting up pool5
I0827 05:34:30.441562  1173 net.cpp:148] Top shape: 40 512 7 7 (1003520)
I0827 05:34:30.441566  1173 net.cpp:156] Memory required for data: 4604150400
I0827 05:34:30.441570  1173 layer_factory.hpp:77] Creating layer fc6
I0827 05:34:30.441578  1173 net.cpp:91] Creating Layer fc6
I0827 05:34:30.441582  1173 net.cpp:435] fc6 <- pool5
I0827 05:34:30.441591  1173 net.cpp:409] fc6 -> fc6
I0827 05:34:33.432140  1173 net.cpp:141] Setting up fc6
I0827 05:34:33.432194  1173 net.cpp:148] Top shape: 40 4096 (163840)
I0827 05:34:33.432201  1173 net.cpp:156] Memory required for data: 4604805760
I0827 05:34:33.432224  1173 layer_factory.hpp:77] Creating layer relu6
I0827 05:34:33.432242  1173 net.cpp:91] Creating Layer relu6
I0827 05:34:33.432251  1173 net.cpp:435] relu6 <- fc6
I0827 05:34:33.432260  1173 net.cpp:396] relu6 -> fc6 (in-place)
I0827 05:34:33.433820  1173 net.cpp:141] Setting up relu6
I0827 05:34:33.433850  1173 net.cpp:148] Top shape: 40 4096 (163840)
I0827 05:34:33.433856  1173 net.cpp:156] Memory required for data: 4605461120
I0827 05:34:33.433861  1173 layer_factory.hpp:77] Creating layer drop6
I0827 05:34:33.433876  1173 net.cpp:91] Creating Layer drop6
I0827 05:34:33.433882  1173 net.cpp:435] drop6 <- fc6
I0827 05:34:33.433892  1173 net.cpp:396] drop6 -> fc6 (in-place)
I0827 05:34:33.433959  1173 net.cpp:141] Setting up drop6
I0827 05:34:33.433967  1173 net.cpp:148] Top shape: 40 4096 (163840)
I0827 05:34:33.433972  1173 net.cpp:156] Memory required for data: 4606116480
I0827 05:34:33.433976  1173 layer_factory.hpp:77] Creating layer fc7
I0827 05:34:33.433991  1173 net.cpp:91] Creating Layer fc7
I0827 05:34:33.433996  1173 net.cpp:435] fc7 <- fc6
I0827 05:34:33.434005  1173 net.cpp:409] fc7 -> fc7
I0827 05:34:34.006572  1173 net.cpp:141] Setting up fc7
I0827 05:34:34.006626  1173 net.cpp:148] Top shape: 40 4096 (163840)
I0827 05:34:34.006633  1173 net.cpp:156] Memory required for data: 4606771840
I0827 05:34:34.006649  1173 layer_factory.hpp:77] Creating layer relu7
I0827 05:34:34.006683  1173 net.cpp:91] Creating Layer relu7
I0827 05:34:34.006708  1173 net.cpp:435] relu7 <- fc7
I0827 05:34:34.006716  1173 net.cpp:396] relu7 -> fc7 (in-place)
I0827 05:34:34.007201  1173 net.cpp:141] Setting up relu7
I0827 05:34:34.007212  1173 net.cpp:148] Top shape: 40 4096 (163840)
I0827 05:34:34.007216  1173 net.cpp:156] Memory required for data: 4607427200
I0827 05:34:34.007220  1173 layer_factory.hpp:77] Creating layer drop7
I0827 05:34:34.007231  1173 net.cpp:91] Creating Layer drop7
I0827 05:34:34.007236  1173 net.cpp:435] drop7 <- fc7
I0827 05:34:34.007241  1173 net.cpp:396] drop7 -> fc7 (in-place)
I0827 05:34:34.007279  1173 net.cpp:141] Setting up drop7
I0827 05:34:34.007302  1173 net.cpp:148] Top shape: 40 4096 (163840)
I0827 05:34:34.007305  1173 net.cpp:156] Memory required for data: 4608082560
I0827 05:34:34.007324  1173 layer_factory.hpp:77] Creating layer fc8_ft_bow
I0827 05:34:34.007339  1173 net.cpp:91] Creating Layer fc8_ft_bow
I0827 05:34:34.007342  1173 net.cpp:435] fc8_ft_bow <- fc7
I0827 05:34:34.007349  1173 net.cpp:409] fc8_ft_bow -> fc8_ft_bow
I0827 05:34:34.091348  1173 net.cpp:141] Setting up fc8_ft_bow
I0827 05:34:34.091430  1173 net.cpp:148] Top shape: 40 713 (28520)
I0827 05:34:34.091500  1173 net.cpp:156] Memory required for data: 4608196640
I0827 05:34:34.091553  1173 layer_factory.hpp:77] Creating layer fc8_ft_bow_fc8_ft_bow_0_split
I0827 05:34:34.091598  1173 net.cpp:91] Creating Layer fc8_ft_bow_fc8_ft_bow_0_split
I0827 05:34:34.091611  1173 net.cpp:435] fc8_ft_bow_fc8_ft_bow_0_split <- fc8_ft_bow
I0827 05:34:34.091629  1173 net.cpp:409] fc8_ft_bow_fc8_ft_bow_0_split -> fc8_ft_bow_fc8_ft_bow_0_split_0
I0827 05:34:34.091651  1173 net.cpp:409] fc8_ft_bow_fc8_ft_bow_0_split -> fc8_ft_bow_fc8_ft_bow_0_split_1
I0827 05:34:34.091665  1173 net.cpp:409] fc8_ft_bow_fc8_ft_bow_0_split -> fc8_ft_bow_fc8_ft_bow_0_split_2
I0827 05:34:34.091787  1173 net.cpp:141] Setting up fc8_ft_bow_fc8_ft_bow_0_split
I0827 05:34:34.091804  1173 net.cpp:148] Top shape: 40 713 (28520)
I0827 05:34:34.091812  1173 net.cpp:148] Top shape: 40 713 (28520)
I0827 05:34:34.091821  1173 net.cpp:148] Top shape: 40 713 (28520)
I0827 05:34:34.091827  1173 net.cpp:156] Memory required for data: 4608538880
I0827 05:34:34.091835  1173 layer_factory.hpp:77] Creating layer accuracy_at_1
I0827 05:34:34.091851  1173 net.cpp:91] Creating Layer accuracy_at_1
I0827 05:34:34.091858  1173 net.cpp:435] accuracy_at_1 <- fc8_ft_bow_fc8_ft_bow_0_split_0
I0827 05:34:34.091872  1173 net.cpp:435] accuracy_at_1 <- label_data_1_split_0
…
